output.onnx (onnx, 15871 bytes, 10 tensors)

model_1_1/separable_conv2d_1_1/separable_conv2d/merged_input:0 f4 [16, 16, 1, 1]
0	0xbd9542dc	-0.07288143
1	0x3dc115e4	0.094280034
2	0x3ca52dc3	0.020163422
3	0xbddabb88	-0.106803
4	0x3dcfb0ec	0.10141167
5	0x3eb7ce7f	0.35899732
6	0xbdbe9535	-0.09305803
7	0x3d36fb07	0.044672992
8	0xbe200c20	-0.15629625
9	0x3d8ce39c	0.068793505
10	0xbc9cbbc0	-0.019132495
11	0x3dd701b3	0.10498371
12	0xbce3ff6b	-0.027831754
13	0xbe5485d8	-0.20754182
14	0x3d66f8ec	0.056389734
15	0x3d18a941	0.037270788
16	0x3e214fcf	0.15753101
17	0x3db04d0b	0.08608445
18	0x3e172401	0.14759828
19	0x3d8ff71c	0.07029554
20	0x3d607335	0.05479737
21	0x3cfd65c8	0.030932322
22	0x3d3b4564	0.045720473
23	0x3e481549	0.1953937
24	0x3e9e1aca	0.30879813
25	0xbcc148fb	-0.02359437
26	0xbe170b29	-0.14750351
27	0xbe06a618	-0.13149297
28	0x3cac4caa	0.02103265
29	0xbe7a2299	-0.2442726
30	0x3c8b7bc2	0.017026786
31	0xbe13b42b	-0.14424197
32	0x3ecc7b9a	0.3993805
33	0x3d624e3a	0.055250384
34	0x3e2eedcd	0.17082901
35	0x3c9d7125	0.01921899
36	0x3d164d49	0.0366948
37	0x3d80fc6c	0.06298146
38	0xbcc0d9e3	-0.023541396
39	0x3cf32e13	0.029685056
40	0x3e34f3f9	0.17671193
41	0xbce009e8	-0.027348474
42	0xbdb1fcf8	-0.08690828
43	0xbda7570f	-0.08170902
44	0xbd7f6692	-0.062353678
45	0xbe97b5ea	-0.29630977
46	0xbcfaed44	-0.030630715
47	0xbda86488	-0.082223
48	0xbdfff6be	-0.12498234
49	0x3e385293	0.1800025
50	0x3df4e9ae	0.11958633
51	0xbdefac61	-0.117028005
52	0x3d5c4ae2	0.05378235
53	0xbcfe1864	-0.03101749
54	0xbe0d298e	-0.13785383
55	0x3e641c24	0.2227636
56	0x3d526bd4	0.051372364
57	0x3e68fe95	0.22753365
58	0xbe854e8d	-0.26036492
59	0xbe61b757	-0.22042595
60	0xbe20c554	-0.15700275
61	0x3e0990d1	0.1343415
62	0x3eb95e32	0.36204678
63	0xbe175cd1	-0.147815
64	0x3da04bc1	0.07826949
65	0x3e2e02b2	0.16993216
66	0x3e66e9c7	0.22550116
67	0x3c3c51bd	0.011494097
68	0x3c179ae9	0.009253242
69	0x3cbf6657	0.02336423
70	0xbe0cba88	-0.13743031
71	0x3e0c910b	0.13727205
72	0x3eb99771	0.36248353
73	0x3ce12973	0.027485585
74	0xbe3d8b77	-0.18510233
75	0xbe653c4e	-0.22386286
76	0xbe052efa	-0.13006201
77	0x3d468455	0.048466045
78	0x3e55d704	0.20882803
79	0xbe630c14	-0.22172576
80	0x3e38839b	0.18018954
81	0x3d4c89ab	0.049935978
82	0xbbaeee2b	-0.0053384504
83	0xbde5caae	-0.11220299
84	0x3e40568e	0.18783018
85	0xbe4373b7	-0.1908711
86	0xbdc63297	-0.09677618
87	0xbd07f124	-0.033188954
88	0xbc1f432f	-0.009720608
89	0x3cdc466c	0.026889049
90	0x3d810bec	0.06301102
91	0xbdb15f73	-0.086607836
92	0xbde0213a	-0.109438375
93	0x3df811b2	0.1211275
94	0x3d513b59	0.05108199
95	0x3d008c8f	0.031384047
96	0x3d8523fa	0.065010026
97	0xbd9db51d	-0.0770056
98	0x3e6a40f4	0.2287634
99	0xbd602b4f	-0.054728802
100	0x3d0e7457	0.03477892
101	0x3e1a662c	0.15078038
102	0xbe859b1b	-0.260949
103	0xbdbc0bef	-0.09181964
104	0xbe1766aa	-0.14785257
105	0xbe85e4c1	-0.26151088
106	0x3d877579	0.06614203
107	0x3c62a212	0.013832586
108	0x3e03f8d7	0.12887894
109	0xbd024525	-0.031804223
110	0xbe1243ae	-0.1428363
111	0x3e3949ff	0.18094634
112	0xbcddc140	-0.027069688
113	0x3d8a6742	0.06757976
114	0x3d4743b7	0.048648562
115	0x3b086268	0.0020810608
116	0xbc89f368	-0.016839698
117	0x3da5fc43	0.08104756
118	0xbdbfa5dd	-0.09357808
119	0x3e23d0b3	0.15997581
120	0x3cc55842	0.024089936
121	0x3e8c401c	0.27392662
122	0xbdb3ecb1	-0.0878538
123	0xbd796e72	-0.060896344
124	0xbe808deb	-0.25108275
125	0xbe866410	-0.26248217
126	0x3e17fae0	0.14841795
127	0xbe4048ba	-0.18777743
128	0xbe159437	-0.1460732
129	0x3eab8e22	0.33506876
130	0x3d8f19b9	0.06987328
131	0xbe1baed1	-0.15203406
132	0x3d9494fa	0.072549775
133	0xbd2cbd0b	-0.042172473
134	0xbe50a58f	-0.20375656
135	0x3e3e031a	0.1855587
136	0x3c48ff97	0.012267969
137	0x3e9cf734	0.3065735
138	0xbe057410	-0.13032556
139	0xbe5b31f9	-0.21405782
140	0xbe0efb5b	-0.13963072
141	0x3dc34cb8	0.09536117
142	0x3ea37237	0.31923077
143	0xbe21d774	-0.15804845
144	0x3e2d09cd	0.1689827
145	0x3d989eb1	0.07452143
146	0x3c4660da	0.012108052
147	0xbe2e9469	-0.17048801
148	0x3e147a79	0.14499845
149	0xbdfac98f	-0.122454755
150	0xbde46f5d	-0.11154053
151	0xbd1582fd	-0.036501873
152	0x3da12fd1	0.078704484
153	0x3d75be10	0.05999571
154	0x3d9151e2	0.07095696
155	0xbe0de9da	-0.13858739
156	0xbda32723	-0.07966449
157	0x3e292431	0.16517712
158	0x3d89eab0	0.06734216
159	0xbc51a787	-0.012796289
160	0x3e89f7a1	0.26946738
161	0xbb80e61a	-0.0039336802
162	0xbc7579ff	-0.014982699
163	0xbe4476c7	-0.19185935
164	0x3e96a472	0.29422337
165	0xbe36cc36	-0.17851338
166	0xbe14ded9	-0.14538135
167	0xbdfe254b	-0.12409457
168	0x3d0e6c80	0.034771442
169	0xbd18365d	-0.03716122
170	0x3e021ea9	0.12707008
171	0x3c3c729b	0.011501933
172	0xbbe2d7d7	-0.006922703
173	0x3da77c54	0.081780106
174	0xbb86441c	-0.0040974747
175	0x3d7224f3	0.05911727
176	0xbdc546f4	-0.09632674
177	0x3da0e26f	0.07855689
178	0x3aaeeea0	0.0013346262
179	0xbd194474	-0.037418798
180	0x3e110f75	0.14166053
181	0x3e5e7e47	0.21727858
182	0xbc495226	-0.012287652
183	0x3cffc517	0.03122191
184	0xbd2cd2c6	-0.042193197
185	0x3dd80845	0.10548452
186	0xbd822575	-0.063548006
187	0x3e0ed7ab	0.13949458
188	0xbb0a7a47	-0.0021130012
189	0xbe3e0ba5	-0.1855913
190	0xbd394f5d	-0.045241702
191	0x3cda67a5	0.02666075
192	0x3c511058	0.012760244
193	0x3e6a68e7	0.2289158
194	0x3d8306d0	0.06397784
195	0x3db27386	0.087134406
196	0x3d809a47	0.06279426
197	0x3d36acfe	0.044598572
198	0xbd884291	-0.066533215
199	0x3e171c80	0.14756966
200	0xbd59d82d	-0.053184677
201	0x3e84809c	0.2587937
202	0xbdffd64a	-0.12492044
203	0xbd3c1ab6	-0.04592391
204	0xbe5e8c2d	-0.2173316
205	0xbe48f955	-0.19626363
206	0x3e894060	0.26806927
207	0xbe43ab8f	-0.19108413
208	0x3e04d52a	0.1297194
209	0x3de0bb39	0.1097321
210	0x3e032625	0.1280752
211	0xbe2b9f70	-0.1676004
212	0x3d1aa471	0.03775448
213	0xbe3af654	-0.18258029
214	0xbdb663bd	-0.08905742
215	0x3e0f575b	0.13998167
216	0x3e51d284	0.20490462
217	0x3dcbca5f	0.099507086
218	0xbde1f53c	-0.11033103
219	0xbd70af40	-0.05876088
220	0xbea13218	-0.3148353
221	0x3bdfbfae	0.00682827
222	0x3d05f8b4	0.032707885
223	0xbdb9e896	-0.09077565
224	0xb9475508	-0.00019009796
225	0x3dc21a6c	0.09477696
226	0x3def466b	0.11683353
227	0x3d7353d6	0.059406124
228	0x380cbf8f	3.3557004e-05
229	0x3d85173d	0.06498573
230	0x39f3531c	0.00046410493
231	0x3d8968f6	0.06709473
232	0x3e181d3f	0.14854906
233	0x3e7a5258	0.24445474
234	0xbdcc6545	-0.09980253
235	0xbcca41bb	-0.024689546
236	0xbd9a593b	-0.075365506
237	0xbe9c8b38	-0.30574965
238	0x3de19fd6	0.110168144
239	0xbe04044d	-0.12892266
240	0xbdbc9049	-0.09207208
241	0x3d9838ea	0.074327305
242	0xbddfb7c0	-0.109237194
243	0xbd350fe2	-0.0442046
244	0x3e503159	0.20331325
245	0x3e2fe46d	0.17176981
246	0xbe0c509e	-0.13702628
247	0x3daeaaa7	0.08528643
248	0xbd3de887	-0.046364333
249	0x3da7ec18	0.08199328
250	0xbe02d313	-0.12775831
251	0x3e2a22b7	0.16614805
252	0xbd329a68	-0.043604285
253	0xbe398405	-0.18116768
254	0x3c9ff604	0.01952649
255	0x3cbb1ce4	0.022840925

model_1_1/dense_1/Cast/ReadVariableOp:0 f4 [112, 4]
0	0xbd5aa98f	-0.05338436
1	0x3d5650a1	0.052322987
2	0xba00bd68	-0.0004911036
3	0x3bca79ad	0.0061790557
4	0xbc694447	-0.01423747
5	0x3c82c9ab	0.015965303
6	0x3c72ec18	0.014826797
7	0xbcd215c2	-0.02564514
8	0xbccea0c8	-0.02522315
9	0x3ce78007	0.02825929
10	0x3bdd70d7	0.0067578363
11	0xbc898c3a	-0.016790498
12	0xbc0b6bba	-0.008509571
13	0xbcb5f8ce	-0.022213366
14	0x3cc6b44e	0.024255898
15	0xbbe7259e	-0.007054045
16	0x3c9ac0c0	0.018890738
17	0xbc966099	-0.018356608
18	0x3c1b2fb3	0.009471822
19	0xbcc8ca5e	-0.024510559
20	0x3c15a353	0.009133178
21	0xbc14c1d8	-0.009079419
22	0x3c6330ba	0.013866598
23	0xbca90dd8	-0.020636484
24	0xbce5d9d2	-0.028057966
25	0x3d11ae8d	0.035566855
26	0xbc93331b	-0.017968705
27	0x3c827673	0.015925622
28	0xbc805b10	-0.015668422
29	0xbc90c2e0	-0.017671049
30	0x3c913344	0.01772464
31	0x3c21d16e	0.009876592
32	0xbc99b7be	-0.018764373
33	0xbceed213	-0.029152906
34	0x3d17949a	0.037006952
35	0xbc619670	-0.013768777
36	0x3c33b2ca	0.01096792
37	0xbc869de1	-0.016432704
38	0x3cf1ef9e	0.029533204
39	0xbd01e608	-0.031713516
40	0x3c045a2f	0.008078142
41	0x3c79448a	0.015214095
42	0x3c0600b2	0.008178877
43	0xbd111d2d	-0.035428215
44	0xbc4881ff	-0.012238025
45	0x3cb59b0e	0.022168662
46	0x3ba5f732	0.0050648684
47	0xbc691308	-0.014225729
48	0xbc29bc93	-0.010359901
49	0xbcf553d6	-0.029947203
50	0x3c925c9e	0.017866429
51	0x3c1c2993	0.009531396
52	0xbbdedaf0	-0.0068010017
53	0xbc6b1067	-0.014347172
54	0x3d0e7712	0.034781523
55	0xbcf9750e	-0.030451324
56	0xbcaeefec	-0.021354638
57	0xbcb15fda	-0.02165215
58	0x3cc46d98	0.02397804
59	0x3ba88c73	0.005143696
60	0xbb9c7fa6	-0.004775959
61	0x3c5cc1b5	0.013473918
62	0x3c9eed00	0.01940012
63	0xbd0a56c5	-0.033774156
64	0x3d574dc2	0.05256439
65	0xbcf3cc3c	-0.029760472
66	0x3bbf447b	0.005837021
67	0xbd8c7102	-0.06857492
68	0xbd0c775a	-0.03429351
69	0xbd0ce2b8	-0.034395903
70	0xbd12360f	-0.035696086
71	0x3dc7ccd1	0.097558625
72	0xbcbad7a1	-0.022807898
73	0xbcd27a0a	-0.025692958
74	0xbcb64a48	-0.022252217
75	0x3d8ea829	0.06965668
76	0x3c3d2c3d	0.011546192
77	0x3c9444df	0.018099247
78	0xbd0d5598	-0.034505457
79	0xbab67612	-0.0013920686
80	0xbcf2a8b6	-0.029621463
81	0x3c85b8d6	0.016323488
82	0xbd1e9cd8	-0.038723797
83	0x3d1b5dc9	0.037931237
84	0xbcab0570	-0.020876616
85	0x3d875df3	0.06609716
86	0xbd45531d	-0.048174966
87	0xbcb2d4c1	-0.021829965
88	0xbd6c8101	-0.057740215
89	0xbd27a1db	-0.04092584
90	0x3d9affa8	0.07568294
91	0xbd226adb	-0.039652687
92	0x3d095e14	0.033536986
93	0xbcdbdd2e	-0.026838865
94	0xbd0c50a1	-0.03425658
95	0x3c91e30f	0.017808465
96	0x3c4a22eb	0.012337427
97	0x3c9949d5	0.018711964
98	0xbd20732a	-0.03917233
99	0x39a1ecab	0.00030884644
100	0xbc8fcaa6	-0.017552685
101	0x3d89941e	0.06717704
102	0xbd2baac3	-0.041910898
103	0xbd0f389b	-0.034966093
104	0xbb74fdf8	-0.0037382822
105	0x3d5269b6	0.051370345
106	0xbcdac7fa	-0.026706684
107	0xbd039968	-0.03212872
108	0x3d5c06fd	0.053717602
109	0xbd07e7b2	-0.033179946
110	0xbca3ec9a	-0.020010281
111	0xbd038498	-0.032108873
112	0x3cd00f80	0.025398016
113	0xbc36f06f	-0.011165722
114	0xbd153672	-0.036428876
115	0x3c8151e7	0.015786124
116	0xbd37f610	-0.044912398
117	0x3d08d93f	0.033410307
118	0xbcc5161c	-0.024058394
119	0x3cb30ca2	0.02185661
120	0x3cfc3703	0.03078795
121	0xbcfb1b64	-0.03065271
122	0xbd4bef99	-0.049789045
123	0x3d195133	0.037430953
124	0x3d68f062	0.056869872
125	0xbca626ac	-0.020282112
126	0xbc80b20c	-0.0157099
127	0xbd3b578a	-0.04573778
128	0xb9c4ca9c	-0.0003753499
129	0x3d08ff98	0.03344688
130	0x3b13985c	0.0022521233
131	0xbd185ed2	-0.037199803
132	0xbd0d0bbe	-0.034435026
133	0xbb5ccc3d	-0.0033691071
134	0x3c4fd508	0.012685068
135	0x3cc5bfad	0.02413925
136	0xbbf471e2	-0.007459865
137	0xbaca303c	-0.0015425752
138	0x3beeea04	0.0072910804
139	0x3b915878	0.004435595
140	0xbd0a9839	-0.033836577
141	0xbcc80db0	-0.02442059
142	0x3d0770eb	0.03306667
143	0xb9e596aa	-0.00043790537
144	0xbbf0f345	-0.0073532187
145	0xbd22ff0b	-0.03979401
146	0x3ceaa4eb	0.028643092
147	0xba9d7875	-0.0012014048
148	0x3d136272	0.035982557
149	0x394f775a	0.0001978552
150	0xbc665b94	-0.01405992
151	0xbcebea3d	-0.028798217
152	0xbbf976df	-0.0076130475
153	0x3c4e8294	0.012604374
154	0xbc98af6b	-0.018638333
155	0x3c82b12e	0.015953626
156	0xbcc9bc75	-0.024625996
157	0xbcee61f4	-0.029099442
158	0x3d316bd8	0.04331574
159	0xbc5b7335	-0.013394167
160	0xbcc274ba	-0.0237373
161	0xbca6ae85	-0.02034689
162	0x3cf56bce	0.029958632
163	0xbbf0ea0c	-0.0073521193
164	0x3c9e37f6	0.019313794
165	0x3b8c7673	0.004286581
166	0xbc247445	-0.010037486
167	0xbc9df4e5	-0.019281814
168	0x3d241760	0.040061355
169	0xbafda536	-0.0019351605
170	0xbcac4608	-0.021029487
171	0xbca942bf	-0.02066171
172	0xbba40dbc	-0.00500652
173	0x3c8c45dd	0.017123157
174	0xbc13ad42	-0.009013476
175	0xba8c8b4a	-0.0010722664
176	0xbca68f2c	-0.020331942
177	0xbcaadb82	-0.020856623
178	0x3c937e90	0.018004686
179	0x3c52b0cb	0.012859534
180	0xbc900b35	-0.017583469
181	0xbc12766e	-0.008939369
182	0x3ccb744b	0.024835726
183	0xbc88dced	-0.016706908
184	0xbccd83b8	-0.025087222
185	0xbae83a4d	-0.001771757
186	0x3c8b27eb	0.016986808
187	0x399765d9	0.00028876847
188	0x3c61096c	0.0137351565
189	0x3cedbe16	0.029021304
190	0xbc452223	-0.012032065
191	0xbd1a81aa	-0.037721314
192	0xbc5ac9c7	-0.0133537715
193	0x3ca632f3	0.020287966
194	0x3b4a88dd	0.003090433
195	0xbc77488f	-0.015092983
196	0xbbb4df78	-0.0055198036
197	0xbbb3a82a	-0.005482693
198	0x3c90de72	0.017684195
199	0xbc5021c5	-0.012703364
200	0x3c917025	0.01775367
201	0xbc883c61	-0.016630353
202	0x3c3598da	0.011083806
203	0xbca90615	-0.020632783
204	0xbd5736a1	-0.052542333
205	0xbc98c80c	-0.018650077
206	0x3d36273e	0.044471018
207	0xbc3c44eb	-0.011491041
208	0xbd070d74	-0.032971814
209	0xbca2122b	-0.019784054
210	0x3d49d289	0.049273048
211	0xbcce981e	-0.02521902
212	0x3cf38a68	0.029729083
213	0xbcba7e56	-0.02276532
214	0xbb201f1a	-0.00244326
215	0xbc5f42e0	-0.013626784
216	0x3a7dce6d	0.0009681944
217	0xba622607	-0.00086268823
218	0xbc587895	-0.013212343
219	0x3c758cfc	0.014987227
220	0xbc2955d4	-0.010335404
221	0xbc9fec48	-0.019521847
222	0x3cc8215d	0.024429971
223	0xbc797818	-0.0152263865
224	0xbce8cd8f	-0.02841833
225	0xbcf0f30b	-0.029412767
226	0x3cea99ba	0.028637756
227	0x3996a3b3	0.00028732195
228	0x3cbe004b	0.0231935
229	0xbcf6deb4	-0.03013549
230	0x3c33a117	0.0109637
231	0xbc9d7e36	-0.019225221
232	0x3d22b7c8	0.03972605
233	0xbd2bcae9	-0.041941557
234	0xbb616a6d	-0.003439571
235	0xbbfaf5ac	-0.007658681
236	0xbc874133	-0.016510582
237	0x3cef53b7	0.029214723
238	0xbc59244c	-0.013253283
239	0xbb3eda1e	-0.0029121707
240	0xbcba0691	-0.02270821
241	0xbc1cf42b	-0.009579699
242	0x3ce21baf	0.027601091
243	0xbc935657	-0.017985506
244	0x3bce8f50	0.0063037053
245	0xbd00710c	-0.03135781
246	0x3c85ba17	0.016324086
247	0xbb855726	-0.004069227
248	0xbcdbda59	-0.026837515
249	0xb9a8f546	-0.000322262
250	0x3ca5e2e5	0.020249793
251	0xbbdf4e6a	-0.0068147676
252	0xbb1c68df	-0.002386622
253	0x3c9e4726	0.019321036
254	0xbc3f3eaf	-0.01167266
255	0xbc28a49a	-0.01029315

model_1_1/dense_1/BiasAdd/ReadVariableOp:0 f4 [4]
0	0xbe191e94	-0.14953071
1	0xbe1a380a	-0.1506044
2	0x3e38cd7d	0.18047138
3	0x3df8429c	0.1212208

model_1_1/conv2d_1_1/convolution/merged_input:0 f4 [8, 1, 1, 128]
0	0x39b72897	0.00034934722
1	0x39b399f9	0.0003425626
2	0x39c320aa	0.00037217635
3	0x39c58a1c	0.00037677668
4	0x39c13776	0.0003685315
5	0x39c031d8	0.0003665823
6	0x39be6506	0.00036314892
7	0x39b38805	0.00034242883
8	0x39b844cb	0.0003514647
9	0x39c0cf77	0.00036775667
10	0x39c0b81f	0.00036758275
11	0x39cb1573	0.00038735158
12	0x39c900f1	0.0003833841
13	0x39bea769	0.00036364354
14	0x39d7830a	0.00041105627
15	0x39d8c2e0	0.00041343924
16	0x39cbd942	0.00038881047
17	0x39d5dc06	0.00040790456
18	0x39d6ac01	0.00040945414
19	0x39cad529	0.0003868726
20	0x39c176c8	0.00036900328
21	0x39c85be2	0.0003821543
22	0x39afcadb	0.0003352974
23	0x39ad57c5	0.00033062525
24	0x39844f44	0.0002523606
25	0x397dea05	0.0002421514
26	0x3930b270	0.00016851141
27	0x38f1e88c	0.00011535091
28	0x38ddd3c6	0.00010577547
29	0x3879c3b9	5.9548507e-05
30	0x3885fdc7	6.389204e-05
31	0x383da722	4.5216766e-05
32	0xb66d0420	-3.5318153e-06
33	0xb87d0e82	-6.0333412e-05
34	0xb8b67adb	-8.70132e-05
35	0xb8c3118f	-9.301595e-05
36	0xb90f6935	-0.00013676735
37	0xb8f70d41	-0.000117803465
38	0xb8ce638f	-9.84139e-05
39	0xb8c82a7d	-9.544657e-05
40	0xb902df2e	-0.00012480907
41	0xb8fcb7d7	-0.00012050539
42	0xb923ce57	-0.00015621759
43	0xb94e00c2	-0.00019645973
44	0xb961221a	-0.00021470376
45	0xb95057ae	-0.00019869089
46	0xb947f63d	-0.0001906985
47	0xb95bc6f5	-0.00020959585
48	0xb9840076	-0.00025177345
49	0xb98c4b38	-0.00026758923
50	0xb9924168	-0.00027896021
51	0xb99ee297	-0.0003030493
52	0xb9a8efd0	-0.0003222213
53	0xb9924088	-0.0002789537
54	0xb9806a47	-0.00024493245
55	0xb9725b96	-0.00023113037
56	0xb9464a65	-0.00018910466
57	0xb946521c	-0.0001891334
58	0xb942c37d	-0.00018574107
59	0xb956f830	-0.00020501087
60	0xb93ae9f1	-0.00017825492
61	0xb937e4d1	-0.00017537481
62	0xb94f41ed	-0.00019765618
63	0xb94a0a43	-0.00019268044
64	0xb97d9b07	-0.00024185712
65	0xb97fe003	-0.00024402146
66	0xb9800de8	-0.00024424423
67	0xb983a677	-0.00025110293
68	0xb986e797	-0.0002573102
69	0xb96c07e9	-0.0002250966
70	0xb94f1436	-0.00019748588
71	0xb93e3d0d	-0.00018142555
72	0xb9574364	-0.00020529103
73	0xb94a18f7	-0.00019273521
74	0xb955fe83	-0.00020408076
75	0xb939d491	-0.00017722162
76	0xb922ef37	-0.00015538638
77	0xb9192425	-0.00014604682
78	0xb930dabc	-0.00016866153
79	0xb9386e1b	-0.00017588625
80	0xb956a4a5	-0.00020469965
81	0xb94df1a5	-0.00019640343
82	0xb9426418	-0.0001853857
83	0xb945ce2f	-0.00018864193
84	0xb943e295	-0.00018681058
85	0xb9491197	-0.00019175406
86	0xb93c1ce2	-0.00017939837
87	0xb94e0e78	-0.00019651081
88	0xb94f993e	-0.00019798146
89	0xb934b33c	-0.00017232908
90	0xb9077aea	-0.00012920392
91	0xb8ed0e84	-0.000113037444
92	0xb8fa2675	-0.00011928092
93	0xb8fccad4	-0.00012054076
94	0xb8ea5401	-0.000111736364
95	0xb8f31e33	-0.00011592768
96	0xb92210f8	-0.00015455845
97	0xb934d925	-0.0001724703
98	0xb9477e17	-0.00019025091
99	0xb9598005	-0.00020742424
100	0xb96ebbb7	-0.00022767378
101	0xb96541f3	-0.0002186371
102	0xb9777b15	-0.00023601607
103	0xb963aac1	-0.00021712018
104	0xb9799ae6	-0.00023804195
105	0xb96b8603	-0.0002246127
106	0xb969ba2f	-0.0002228997
107	0xb96f969c	-0.00022848923
108	0xb9489604	-0.00019129372
109	0xb92f784b	-0.00016734113
110	0xb9066239	-0.00012815827
111	0xb8c233ef	-9.260314e-05
112	0xb8d38bfc	-0.00010087338
113	0xb9036766	-0.00012531652
114	0xb8f7b289	-0.000118111326
115	0xb8f76c5f	-0.000117980635
116	0xb90e8ce9	-0.00013594668
117	0xb9058168	-0.00012732076
118	0xb908a932	-0.00013033001
119	0xb91e1fbd	-0.00015079878
120	0xb95527f7	-0.00020328151
121	0xb9419177	-0.00018460104
122	0xb977657d	-0.00023593563
123	0xb9813ab8	-0.00024648546
124	0xb9861231	-0.00025572025
125	0xb98fb582	-0.0002741032
126	0xb9a51f63	-0.00031494637
127	0xb9a43476	-0.00031319604
128	0x39e0ef1b	0.00042902757
129	0x39d36bf7	0.00040325496
130	0x39d72729	0.00041037172
131	0x39d43b1f	0.0004047984
132	0x39d52074	0.00040650705
133	0x39c37623	0.00037281317
134	0x39bf4b69	0.00036486544
135	0x39ba34b0	0.0003551594
136	0x39aeb15a	0.00033320003
137	0x39a96d44	0.000323156
138	0x399bbcfe	0.00029704714
139	0x398a4626	0.00026373676
140	0x398b457b	0.00026563913
141	0x39856232	0.00025440898
142	0x3978d80b	0.00023731605
143	0x39843c76	0.0002522205
144	0x39844100	0.0002522543
145	0x3975d26e	0.00023443412
146	0x398b83da	0.00026610383
147	0x39855307	0.00025429597
148	0x397953da	0.00023777728
149	0x39788e58	0.0002370415
150	0x39709c19	0.00022946335
151	0x397d260f	0.00024142138
152	0x3976312f	0.0002347871
153	0x39589616	0.00020655277
154	0x3941085e	0.00018409031
155	0x39253d30	0.0001575842
156	0x38dedcc0	0.00010626903
157	0x389d8715	7.5115044e-05
158	0x384563af	4.7061298e-05
159	0x389131d7	6.923422e-05
160	0x38802f8f	6.112374e-05
161	0x3898fb1a	7.294696e-05
162	0x390867b0	0.00013008597
163	0x3915e1f1	0.00014293917
164	0x390a10b6	0.00013166931
165	0x390540a0	0.00012707943
166	0x3918d370	0.00014574616
167	0x390878ca	0.00013014968
168	0x38b770e8	8.7471504e-05
169	0x38b59f65	8.660442e-05
170	0x388de07f	6.7652196e-05
171	0x3848834e	4.7806003e-05
172	0x3815b506	3.569296e-05
173	0x382c0758	4.1014835e-05
174	0x37305bf2	1.0511825e-05
175	0x36665b9f	3.4326001e-06
176	0xb82da121	-4.1396477e-05
177	0xb80497a6	-3.1612486e-05
178	0xb87cb834	-6.0253034e-05
179	0xb855e600	-5.099736e-05
180	0xb8a8addf	-8.04325e-05
181	0xb88b83bd	-6.652575e-05
182	0xb89a9ae8	-7.372146e-05
183	0xb894c58f	-7.093988e-05
184	0xb808fbda	-3.265948e-05
185	0xb6d8e1ba	-6.4635797e-06
186	0xb7c7d0bb	-2.3819846e-05
187	0xb59ab15d	-1.1525514e-06
188	0xb73f749b	-1.14116365e-05
189	0x371a4733	9.195693e-06
190	0x36803ce1	3.8217845e-06
191	0x34f35163	4.5321494e-07
192	0xb770836b	-1.4335713e-05
193	0x371385da	8.7930475e-06
194	0xb4956fd4	-2.7834778e-07
195	0x370522dc	7.935534e-06
196	0xb6b7ddca	-5.4796446e-06
197	0xb6cf8334	-6.184355e-06
198	0x37839e73	1.56902e-05
199	0x38140f7c	3.530037e-05
200	0x3876aebc	5.8813705e-05
201	0x388d0e49	6.726065e-05
202	0x38b75646	8.74219e-05
203	0x38f77cb8	0.000118011085
204	0x390a9be1	0.00013218775
205	0x390150fd	0.00012332569
206	0x3900f90f	0.00012299813
207	0x391e8521	0.00015117649
208	0x39031439	0.00012500667
209	0x39182414	0.0001450929
210	0x3922c11f	0.00015521467
211	0x39390251	0.00017643838
212	0x39286ff0	0.00016063428
213	0x39469b00	0.00018940493
214	0x392ced34	0.00016491563
215	0x39432201	0.00018609317
216	0x391b9532	0.00014837531
217	0x391314c3	0.00014026747
218	0x39222fc5	0.0001546732
219	0x3912c691	0.00013997617
220	0x3905dd29	0.00012766257
221	0x38bf9998	9.136199e-05
222	0x38b84ecc	8.788481e-05
223	0x38b5494a	8.644404e-05
224	0x38cca445	9.7580756e-05
225	0x38f35f89	0.00011604938
226	0x38cb84fe	9.704566e-05
227	0x38e6f6d3	0.00011013229
228	0x38e70238	0.000110153516
229	0x38fdea55	0.00012107628
230	0x3903785a	0.00012537968
231	0x39075f22	0.00012910043
232	0x39154bc6	0.00014237975
233	0x38f687e2	0.00011755504
234	0x38e63f8e	0.000109790926
235	0x38e472b3	0.000108932516
236	0x38eb5974	0.00011222335
237	0x38c9d7b1	9.6246025e-05
238	0x3896f814	7.1987655e-05
239	0x38ac017f	8.201878e-05
240	0x387837e0	5.9179845e-05
241	0x3881aa23	6.18289e-05
242	0x38756252	5.850412e-05
243	0x385404c7	5.0549188e-05
244	0x389f6185	7.599875e-05
245	0x386fae4a	5.714436e-05
246	0x38dcf9d7	0.00010536954
247	0x39043886	0.00012609558
248	0x39120016	0.00013923677
249	0x39266b46	0.00015870956
250	0x3940f25c	0.00018400833
251	0x39711da7	0.00022994597
252	0x3982ec22	0.00024971465
253	0x3989718f	0.00026215284
254	0x39987093	0.00029075574
255	0x39a31c95	0.00031111078

model_1_1/batch_normalization_3_1/batchnorm/sub:0 f4 [16]
0	0xbeabfe5c	-0.33592498
1	0x3f45d510	0.7727823
2	0x3fb16057	1.3857526
3	0x3e87c514	0.26517546
4	0x3ed1c4c8	0.40970445
5	0xbffe3f32	-1.9863036
6	0xbfcdcb7a	-1.6077721
7	0x3e4169e8	0.18888056
8	0x3aad8000	0.0013237
9	0xbfe3b63a	-1.7789986
10	0xc0127c82	-2.2888494
11	0xbf1df9bd	-0.61709195
12	0x3f3d993e	0.74061954
13	0xbe839ff4	-0.25707972
14	0x3f5072f6	0.81425416
15	0xbfaf0dfa	-1.367614

model_1_1/batch_normalization_2_1/batchnorm/mul:0 f4 [1, 16, 1, 1]
0	0x401613cf	2.344959
1	0x4006bc56	2.105245
2	0x3fed3c4e	1.8534029
3	0x40319ce0	2.7752
4	0x3ff5ad16	1.9193447
5	0x3f384c2d	0.71991235
6	0x3f43809b	0.7636811
7	0x3ee0c80a	0.43902618
8	0x3f8d65c3	1.104668
9	0x3fd57427	1.6676072
10	0x3f374288	0.71585894
11	0x3f28a4e8	0.65876627
12	0x3f9eab0a	1.2395947
13	0x3f6b22ff	0.91850275
14	0x3f9636d0	1.1735477
15	0x3faf5b02	1.3699648

model_1_1/batch_normalization_1_1/batchnorm/sub:0 f4 [8]
0	0xbd5cf2d5	-0.05394252
1	0x3e6ea25e	0.23304126
2	0x3daa77f6	0.08323662
3	0x3dc3b51e	0.0955603
4	0x3c1fa306	0.009743458
5	0xbe4e9cd4	-0.20177013
6	0x3d40bad2	0.047053166
7	0xbb3e8c40	-0.0029075295

const_fold_opt__55 f4 [1, 16, 1, 1]
0	0x3c7e9356	0.015538057
1	0x3f19369f	0.5984897
2	0x3d9710dc	0.073762625
3	0x3e618026	0.22021541
4	0xbf8d9909	-1.1062328
5	0x3e6f599f	0.23374031
6	0xbfb2e594	-1.3976312
7	0x3e983dc8	0.29734635
8	0xbce78d4e	-0.028265622
9	0xbeb7a448	-0.35867524
10	0x3bbea970	0.0058185384
11	0x3cf44f2c	0.029822908
12	0x3da94c47	0.08266502
13	0x3c534d4b	0.012896846
14	0x3ec42fce	0.38317722
15	0x3ecb799d	0.3974122

const_fold_opt__54 f4 [16, 1, 1, 16]
0	0xbe9c5c20	-0.30539036
1	0xbf9ff532	-1.2496703
2	0xbff7de81	-1.9364778
3	0xbff5f12f	-1.9214228
4	0xbfcec0e4	-1.6152616
5	0xbf91b793	-1.1384147
6	0xbf36e545	-0.7144359
7	0xbe80011c	-0.25000846
8	0x3ddba648	0.10725075
9	0x3dba256d	0.0908917
10	0xbc15320c	-0.00910617
11	0xbe97d606	-0.29655474
12	0xbf0c04d4	-0.5469487
13	0xbf3ab9f5	-0.7294
14	0xbf0b6297	-0.5444731
15	0xbf02220c	-0.508332
16	0xbe261def	-0.16222356
17	0x3edf29c0	0.4358654
18	0x3f2a526a	0.66532004
19	0x3ee9a3e7	0.4563286
20	0xbe88ceea	-0.26720363
21	0xbf38e93e	-0.722309
22	0xbf964c81	-1.1742097
23	0xbfa5238c	-1.2901473
24	0xbfbb9af5	-1.4656664
25	0xbf9e548d	-1.2369553
26	0xbf8160d9	-1.010768
27	0xbeac222f	-0.3361983
28	0x3e23b349	0.1598636
29	0x3f0ee972	0.5582496
30	0x3ed46265	0.4148132
31	0x3ed8f4b0	0.42374182
32	0xbf92d52c	-1.1471305
33	0xbf4f981e	-0.8109149
34	0xbf24d81d	-0.6439226
35	0xbec8a251	-0.39186338
36	0xbefb7784	-0.4911462
37	0xbf01851a	-0.5059372
38	0xbf052db8	-0.52022886
39	0xbe5bc028	-0.2146002
40	0xbee39e58	-0.44456744
41	0xbf1ba6c7	-0.6080136
42	0xbf342a75	-0.70377284
43	0xbf386887	-0.72034496
44	0xbe307500	-0.17232132
45	0xbe1fd373	-0.15608005
46	0x3d6c4610	0.057684004
47	0xbdcb37ca	-0.0992275
48	0xbd33669f	-0.04379904
49	0xbdd21d0f	-0.10259449
50	0xbe4cd9a6	-0.20004901
51	0x3c2558cc	0.010091972
52	0x3e79c7f5	0.24392684
53	0x3effcc36	0.49960488
54	0x3f2fc684	0.68662286
55	0x3f492a04	0.78579736
56	0x3f4fe200	0.81204224
57	0x3f5bb848	0.85828066
58	0x3f436b88	0.76335955
59	0x3ef393b1	0.47573617
60	0x3eff04d9	0.49808386
61	0x3f0604ce	0.5235108
62	0x3f22f72d	0.6365841
63	0x3f45d1e4	0.7727339
64	0xbfc19059	-1.5122176
65	0xbf8936c6	-1.071984
66	0xbf249d7d	-0.6430281
67	0xbebf7893	-0.37396678
68	0xbe70c692	-0.23513249
69	0x3d765690	0.060141146
70	0x3e92502f	0.285768
71	0x3df2628f	0.11835205
72	0xbe61a220	-0.22034502
73	0xbf15134d	-0.58232576
74	0xbf59d49c	-0.8509004
75	0xbf4de930	-0.8043394
76	0xbf6c95cf	-0.9241609
77	0xbf8caf02	-1.0990908
78	0xbf7d7c22	-0.99017537
79	0xbf82fc8b	-1.023332
80	0xbea45187	-0.3209345
81	0xbfdc5a2e	-1.7215021
82	0xc028d1af	-2.637798
83	0xc012e58c	-2.2952604
84	0xbfba02e7	-1.4532136
85	0xbf113a93	-0.5673
86	0xbd8a02f4	-0.067388445
87	0x3ecfd883	0.40594873
88	0x3f21f244	0.63260293
89	0x3f3c5827	0.7357201
90	0x3ee18b5a	0.4405163
91	0x3dcf1363	0.101111196
92	0xbea780ec	-0.32715547
93	0xbea9bd05	-0.33152023
94	0xbd9b2344	-0.07575086
95	0x3ecede2a	0.40403873
96	0x3f86b765	1.0524718
97	0x3f5afc04	0.85540795
98	0x3f10f7a0	0.56627846
99	0x3f13303c	0.57495475
100	0x3f1587e4	0.5841048
101	0x3e956d77	0.29185078
102	0x3d189394	0.037250116
103	0x3e0940fb	0.13403694
104	0x3e57471c	0.2102322
105	0x3e788e39	0.24273004
106	0x3f28ec58	0.6598563
107	0x3f3021eb	0.68801755
108	0x3f0c44ac	0.54792285
109	0x3f07f749	0.531117
110	0x3f3f3fa1	0.74706465
111	0x3f915115	1.1352869
112	0xbf76efcc	-0.9645965
113	0x3e4ec420	0.20192003
114	0x3ebc7f2f	0.36815783
115	0xbefb358f	-0.490643
116	0xbf8ed0b8	-1.1157446
117	0xbf98a743	-1.1926044
118	0xbf9004ca	-1.1251462
119	0xbf40ebe1	-0.7535992
120	0xbf34d683	-0.7063982
121	0xbf11e756	-0.56993616
122	0xbeab13d0	-0.33413553
123	0x3e2e74da	0.17036763
124	0x3f06274a	0.524037
125	0x3eb72383	0.3576928
126	0x3d4bf342	0.049792536
127	0x3e4bfed9	0.19921435
128	0xc00dde35	-2.2166874
129	0xbff79c0c	-1.9344497
130	0xbfb31836	-1.3991764
131	0xbf22a6ef	-0.6353597
132	0xbded10ed	-0.11575494
133	0x3eae5c64	0.34054863
134	0x3e963f78	0.29345298
135	0x3f016a69	0.50552994
136	0x3f994e74	1.1977067
137	0x3f813928	1.0095568
138	0x3f4971bf	0.7868919
139	0x3e71a484	0.23597914
140	0x3eced24f	0.40394828
141	0x3d16b507	0.036793735
142	0x3ecfff6c	0.4062456
143	0x3f4eaa38	0.80728483
144	0xbfe34fc0	-1.7758713
145	0xbfe83a97	-1.814288
146	0xbf251c82	-0.64496624
147	0x3fa32f22	1.2748759
148	0x3fbb099f	1.4612311
149	0x3f591edc	0.8481271
150	0x3edecfae	0.43517822
151	0x3f8e683a	1.1125557
152	0x3fd1a071	1.6377088
153	0x3f7a274b	0.97716206
154	0xbe222671	-0.15834977
155	0xbf78238b	-0.96929234
156	0xbe8cd379	-0.2750509
157	0x3e490e78	0.19634426
158	0x3ea3bcb0	0.31979895
159	0x3e6eec95	0.23332436
160	0x3ff0c568	1.8810244
161	0x3f3f8008	0.74804735
162	0x3ef11c9a	0.47092134
163	0x3f333611	0.70004374
164	0x3f914026	1.1347702
165	0x3fa97d93	1.3241447
166	0x3f8721f7	1.055724
167	0x3f19ca96	0.60074747
168	0x3dc22ade	0.094808325
169	0x3d709d34	0.05874367
170	0x3cdaa14a	0.026688237
171	0x3dae1099	0.084992595
172	0xbc96755e	-0.018366512
173	0xbd1b4b48	-0.03791359
174	0x3e29147e	0.16511723
175	0xbd3b9710	-0.04579836
176	0x3f90d0b6	1.1313694
177	0x3fa29b7e	1.2703702
178	0x3fdf6bd0	1.7454777
179	0x3ff860e1	1.9404565
180	0x3fb3542a	1.401006
181	0x3f59a017	0.850099
182	0x3f09f61c	0.5389116
183	0x3e3dd982	0.18540004
184	0xbd8df6b5	-0.06931821
185	0xbe56d8aa	-0.20981088
186	0xbe841ee3	-0.25804815
187	0x3d5be0ca	0.053681172
188	0xbd62842e	-0.055301838
189	0x3e555972	0.20834902
190	0xbe58e0d8	-0.21179521
191	0xbf18f2d2	-0.59745514
192	0x3f5f749d	0.8728731
193	0x3fc8ec86	1.5697181
194	0x3ff4277f	1.9074553
195	0x3f96e949	1.1789943
196	0x3c97a9db	0.01851361
197	0xbf10b466	-0.56525266
198	0xbf2009dc	-0.62515044
199	0xbf050782	-0.5196458
200	0xbf4fee25	-0.81222755
201	0xbf83028d	-1.0235153
202	0xbf74e1ef	-0.9565725
203	0x3dde82ea	0.108648136
204	0x3ecfdd91	0.4059873
205	0x3dc9b2cd	0.09848557
206	0xbe633cf3	-0.22191219
207	0xbf27c67c	-0.6553724
208	0x4009e621	2.154671
209	0x403b24d0	2.9241219
210	0x40257219	2.585089
211	0x3ff853df	1.9400595
212	0x3f5677e6	0.837767
213	0x3d33dd31	0.043912116
214	0xbe8e4d2d	-0.27793255
215	0xbf2de42e	-0.679263
216	0xbf216447	-0.63043636
217	0xbf192111	-0.5981608
218	0xbdff0897	-0.1245281
219	0xbc3122d3	-0.010811525
220	0x3e7e169e	0.24813315
221	0x3eb76c05	0.358246
222	0x3e487f52	0.19579819
223	0xbe55bb6e	-0.2087228
224	0xc0331a65	-2.798486
225	0xc001a47e	-2.0256648
226	0xbfaff49c	-1.3746524
227	0xbf12bd46	-0.5732006
228	0xbe37a864	-0.1793533
229	0xbeae9677	-0.3409917
230	0xbef3c820	-0.4761362
231	0xbebe3b69	-0.371547
232	0xbc135720	-0.00899294
233	0x3f092a75	0.5358041
234	0x3ef553bc	0.47915447
235	0xbdb2259e	-0.08698581
236	0x3e70939f	0.23493813
237	0x3e823909	0.2543414
238	0x3e8cb284	0.27479947
239	0x3ebecb20	0.37264347
240	0xbff805eb	-1.9376806
241	0xbf864f59	-1.0492965
242	0xbecbe124	-0.39820206
243	0x3e10c320	0.14136934
244	0xbdeb4728	-0.11488181
245	0x3dbdb934	0.0926384
246	0x3e6d79cf	0.23190998
247	0x3f289442	0.65851223
248	0x3f212842	0.62952054
249	0x3f1c8e2c	0.6115444
250	0x3e885cb6	0.26633233
251	0x3eccdf22	0.40013987
252	0x3f515751	0.8177386
253	0x3f46ad83	0.7760851
254	0x3f5bef78	0.85912275
255	0x3f3c3963	0.73525065

const_fold_opt__51 f4 [16, 1, 64, 1]
0	0xbe77d80f	-0.24203514
1	0xbd867285	-0.065648116
2	0xbe428093	-0.1899436
3	0xbd931f0b	-0.07183655
4	0x3c43d230	0.011951968
5	0x3cfacf27	0.030616356
6	0x3eb1fb90	0.3476224
7	0xbd0f0beb	-0.034923475
8	0xbe0574e7	-0.13032876
9	0xbdc6ba3a	-0.09703489
10	0xbe24329a	-0.16034928
11	0x3e2a6735	0.16640933
12	0x3e66beb7	0.2253369
13	0x3e3de6e1	0.18545105
14	0xbd7d0958	-0.06177649
15	0xbded094a	-0.115740374
16	0x3ca1eba2	0.019765679
17	0xbe07c145	-0.1325732
18	0xbc353a93	-0.011061328
19	0x3d379eb4	0.044829085
20	0xbbd2ac5c	-0.0064292382
21	0xbd8af145	-0.067843
22	0x3d480cd2	0.04884035
23	0x3d97ca58	0.07411641
24	0xbe283acb	-0.16428678
25	0x3dece44f	0.11566984
26	0x3ce2de67	0.02769394
27	0xbb890d64	-0.0041825045
28	0x3e16cac7	0.14725791
29	0xbe5420d0	-0.20715642
30	0xbe23b6fc	-0.15987772
31	0xbdcf8249	-0.10132272
32	0xbcde1b3e	-0.0271126
33	0xb92ce541	-0.00016488602
34	0x3c824a72	0.015904639
35	0xbd48f206	-0.049058937
36	0x3d4bf900	0.04979801
37	0x3e945a92	0.2897535
38	0xbe873c20	-0.2641306
39	0x3e9ee4f5	0.31034055
40	0x3b568fcc	0.0032739518
41	0x3e0ee580	0.13954735
42	0x3d1744bf	0.036930796
43	0x3df91b0b	0.12163361
44	0xbd17be91	-0.037046973
45	0x3e066d70	0.13127685
46	0x3dc12010	0.094299436
47	0x3bcd09cf	0.006257273
48	0xbde75b25	-0.11296681
49	0xb9dd48f4	-0.0004220676
50	0xbca27a37	-0.019833667
51	0xbd9da6d4	-0.076978356
52	0x3e05532a	0.13020006
53	0xbc33772c	-0.010953706
54	0x3e060344	0.13087183
55	0xbddbbcee	-0.10729395
56	0xbdc51e25	-0.0962489
57	0xbdaf5a71	-0.08562172
58	0xbd7019c4	-0.058618322
59	0xbd956755	-0.072951
60	0xbd6505a2	-0.055913575
61	0x3d2146c2	0.03937412
62	0x3d49f651	0.04930717
63	0xba0d0a0b	-0.00053802197
64	0x3da4bff3	0.08044424
65	0x3dcef6cf	0.10105669
66	0x3d2fc2d4	0.042910412
67	0xbe103ab5	-0.14084895
68	0xbdd35d71	-0.10320557
69	0xbda86164	-0.08221701
70	0x3e05ac41	0.13053991
71	0x3bb221e3	0.0054361685
72	0x3bd2f8cd	0.006438351
73	0xbd0af148	-0.03392151
74	0xbd95c168	-0.0731228
75	0x3d022be1	0.031780127
76	0xbe796d5e	-0.24358127
77	0xbd9d6c9e	-0.07686733
78	0xbe2ab923	-0.16672187
79	0xbd0a2a23	-0.03373159
80	0xbe21804f	-0.15771602
81	0xbe5ccfaa	-0.21563593
82	0xbde7abc0	-0.113120556
83	0xbd205cb8	-0.039150923
84	0xbda04525	-0.07825688
85	0xbd9d885f	-0.07692026
86	0x3e0ac13e	0.13550279
87	0x3d9066b2	0.070508376
88	0xbe42d9bc	-0.19028372
89	0x3e83ab75	0.2571675
90	0x3dfb2fa4	0.12264946
91	0x3e18262e	0.14858314
92	0xbc26c012	-0.010177629
93	0x3cc5c25c	0.02414053
94	0x3d166a01	0.036722187
95	0xbb7cb95c	-0.0038562631
96	0x3e34d588	0.1765958
97	0x3d8809e5	0.06642512
98	0x3e5688c9	0.20950617
99	0xbd6aed33	-0.057355117
100	0xbe39b60c	-0.18135852
101	0xbb930919	-0.0044871685
102	0x3e089364	0.13337475
103	0x3d87ad6f	0.06624877
104	0x3e369b9e	0.17832801
105	0x3a78dd8d	0.0009493463
106	0xbe3d61f1	-0.18494393
107	0x3b84e598	0.00405569
108	0x3e93bf5e	0.2885694
109	0x3dafcf8e	0.0858451
110	0xbe03b93e	-0.12863633
111	0x3e51ae76	0.20476708
112	0x3dfee1bd	0.124454
113	0xbe8074d1	-0.25089124
114	0xbc9e88a9	-0.019352274
115	0xbc068cd0	-0.008212283
116	0xbdec0c12	-0.1152574
117	0xbd1c81e7	-0.038209822
118	0xbd2343de	-0.039859645
119	0xbd8ef9c9	-0.069812365
120	0xbe28e05e	-0.1649184
121	0xbd82417e	-0.06360148
122	0xbc3ce3e1	-0.01152894
123	0x3d8afdfd	0.06786726
124	0x3dbd2287	0.09235101
125	0x3ded3617	0.115825824
126	0x3e5cec76	0.21574578
127	0x3d94c2de	0.072637305
128	0x3ca48dd9	0.02008717
129	0xbcdf43c7	-0.027253998
130	0xbe2d556b	-0.16927116
131	0x3e5a7e70	0.21337295
132	0xbd20f188	-0.039292842
133	0xbe894fc5	-0.26818672
134	0xbdfbfa72	-0.12303628
135	0xbd037608	-0.032094985
136	0xbe02d48d	-0.12776394
137	0xbba182ce	-0.004928923
138	0xbd2ce5df	-0.04221141
139	0xbe358c39	-0.17729272
140	0xbe7e2d33	-0.2482193
141	0x3d1fb1a9	0.03898779
142	0x3ccf0a75	0.025273541
143	0xbc66687a	-0.014062995
144	0x3e7c1d61	0.24620582
145	0x3e0107d9	0.1260065
146	0x3d7a6de5	0.06113996
147	0xbd004028	-0.031311184
148	0xbdc7530e	-0.09732638
149	0x3e11bd35	0.14232333
150	0x3e42efb1	0.19036748
151	0xbd35f4b4	-0.04442282
152	0x3daf093b	0.085466824
153	0x3e6ab893	0.22921972
154	0x3e3dccc6	0.18535146
155	0xbc7d813a	-0.015472705
156	0xbe313b6f	-0.17307828
157	0x3de03285	0.10947136
158	0x3e278387	0.16358767
159	0x3cab48a7	0.020908667
160	0x3e629a0c	0.22129077
161	0x3d146f30	0.03623885
162	0x3c4206ac	0.011842411
163	0xbcba6387	-0.022752536
164	0x3dcd1158	0.10013074
165	0xbe2391f3	-0.15973644
166	0xbd03524e	-0.032060914
167	0xbcbaa0ac	-0.022781692
168	0x3e0e2e95	0.13884957
169	0xbcab30e5	-0.020897338
170	0x3e007517	0.12544666
171	0xbd72e5fd	-0.059301365
172	0xbcdd149d	-0.026987368
173	0xbd6b7a58	-0.057489723
174	0x3e0f47d3	0.13992243
175	0x3dc0a574	0.09406558
176	0xbe2e4144	-0.17017084
177	0x3d6dbba2	0.05804027
178	0xbe768603	-0.24074559
179	0xbd587c28	-0.05285278
180	0x3e36552b	0.17805927
181	0xbd230883	-0.03980304
182	0x3da5f7e7	0.08103924
183	0xbdaa0c1c	-0.08303091
184	0x3d2ed0e2	0.042679675
185	0xbd2b5bf5	-0.041835744
186	0xbd3885b2	-0.045049377
187	0xbe35e59a	-0.17763367
188	0x3d87e280	0.06634998
189	0x3e7bfa96	0.2460731
190	0x3da5f5ea	0.08103545
191	0xbce5c073	-0.028045869
192	0x3df8f625	0.12156323
193	0xbe2ab6fd	-0.16671367
194	0xbb18c8d8	-0.0023313072
195	0xbdd573a1	-0.10422445
196	0xbe1709d0	-0.14749837
197	0xbcb85461	-0.022501172
198	0xbdb93709	-0.090437
199	0x3ddb9984	0.1072264
200	0x3e3a83f3	0.18214397
201	0x3a9172ff	0.0011096894
202	0xbe72afc9	-0.23699869
203	0xbe45980b	-0.19296281
204	0xbce0c524	-0.027437754
205	0xbca60c88	-0.020269647
206	0x3df2b27d	0.1185045
207	0x3d867f43	0.06567242
208	0x3dc6545e	0.096840605
209	0x3dcef2af	0.10104882
210	0x3e5a327a	0.21308318
211	0x3d1d7f01	0.0384512
212	0xbd945e88	-0.07244593
213	0x3da324ce	0.07966004
214	0x3c87599e	0.016522225
215	0xbc19a4d8	-0.009377681
216	0x3d2e400e	0.042541556
217	0xbe099c3d	-0.13438506
218	0x3cb02a33	0.021504497
219	0x3ddbf8ed	0.10740838
220	0xbda889b6	-0.08229391
221	0x3d177db4	0.036985114
222	0x3dacf41c	0.08444998
223	0xbd094555	-0.033513386
224	0xbdf50771	-0.1196431
225	0xbd0b611d	-0.03402816
226	0xbd935299	-0.07193489
227	0xbe3d3d84	-0.18480498
228	0xbe8df131	-0.27723077
229	0xbac2b262	-0.0014854188
230	0x3e85c84f	0.26129386
231	0x3dce2c94	0.10067096
232	0xbd293a8e	-0.041315608
233	0xbe30f8aa	-0.17282358
234	0x3e386be7	0.18009911
235	0x3e6e6f71	0.23284699
236	0x3de8bc87	0.11364084
237	0x3d7520e6	0.059845828
238	0x3cedbb93	0.029020106
239	0x3d31b351	0.0433839
240	0x3d73644a	0.059421815
241	0x3cf19488	0.02948977
242	0x3cd315b0	0.025767177
243	0xbe980d46	-0.29697627
244	0x3e6b66e6	0.22988471
245	0x3e0ff7a6	0.14059314
246	0xbd5f51cf	-0.054521378
247	0x3d8b5c6e	0.06804739
248	0xbd82008d	-0.06347761
249	0xbe5a5adc	-0.21323723
250	0xbdb11977	-0.08647435
251	0xbcffb53a	-0.031214345
252	0xbc43872c	-0.011934083
253	0xbe5c7808	-0.21530163
254	0xbda31f17	-0.07964914
255	0x3b72881c	0.0037007397
